…
n\nimg_shape = (28,28,1)\n\nmodel = Sequential()\n\nmodel.add(Conv2D(6,3,input_shape=img_shape))\n\nmodel.add(Activation('relu'))\n\nmodel.add(MaxPool2D(2))\n\nmodel.add(Conv2D(12,3))\n\nmodel.add(Activation('relu'))\n\nmodel.add(MaxPool2D(2))\n\nmodel.add(Flatten())\n\nmodel.add(Dense(10))\n\nmodel.add(Activation('softmax'))\n```", "```py\nConv2D\nPool \n\nConv2D\nPool\n\nFlatten\n\nDense\n```", "```py\nmodel.summary()\n```", "```py\nLayer (type)                 Output Shape              Param # \n=================================================================\nconv2d_2 (Conv2D)            (None, 26, 26, 6)         60 \n_________________________________________________________________\nactivation_3 (Activation)    (None, 26, 26, 6)         0 \n_________________________________________________________________\nmax_pooling2d_2 (MaxPooling2 (None, 13, 13, 6)         0 \n_________________________________________________________________\nconv2d_3 (Conv2D)            (None, 11, 11, 12)        660 \n_________________________________________________________________\nactivation_4 (Activation)    (None, 11, 11, 12)        0 \n_________________________________________________________________\nmax_pooling2d_3 (MaxPooling2 (None, 5, 5, 12)          0 \n_________________________________________________________________\nflatten_2 (Flatten)          (None, 300)               0 \n_________________________________________________________________\ndense_2 (Dense)              (None, 10)                3010 \n_________________________________________________________________\nactivation_5 (Activation)    (None, 10)                0 \n=================================================================\nTotal params: 3,730\nTrainable params: 3,730\nNon-trainable params: 0\n_________________________________________________________________\n\n```", "```py\nfrom keras.datasets import mnist\n(x_train, y_train), (x_test, y_test) = mnist.load_data()\n```", "```py\nx_train.shape\n```", "```py\nout:\n(60000, 28, 28)\n\n```", "```py\nim
…
vgg16 import VGG16\nvgg_model = VGG16(include_top=False,input_shape=(150,150,3))\n```", "```py\nout: \nDownloading data from https://github.com/fchollet/deep-learning-models/releases/download/v0.1/vgg16_weights_tf_dim_ordering_tf_kernels_notop.h5\n58892288/58889256 [==============================] - 5s 0us/step\n\n```", "```py\nvgg_model.summary()\n```", "```py\nout: \n_________________________________________________________________\nLayer (type)                 Output Shape              Param # \n=================================================================\ninput_1 (InputLayer)         (None, 150, 150, 3)       0 \n_________________________________________________________________\nblock1_conv1 (Conv2D)        (None, 150, 150, 64)      1792 \n_________________________________________________________________\nblock1_conv2 (Conv2D)        (None, 150, 150, 64)      36928 \n_________________________________________________________________\nblock1_pool (MaxPooling2D)   (None, 75, 75, 64)        0 \n_________________________________________________________________\nblock2_conv1 (Conv2D)        (None, 75, 75, 128)       73856 \n_________________________________________________________________\nblock2_conv2 (Conv2D)        (None, 75, 75, 128)       147584 \n_________________________________________________________________\nblock2_pool (MaxPooling2D)   (None, 37, 37, 128)       0 \n_________________________________________________________________\nblock3_conv1 (Conv2D)        (None, 37, 37, 256)       295168 \n_________________________________________________________________\nblock3_conv2 (Conv2D)        (None, 37, 37, 256)       590080 \n_________________________________________________________________\nblock3_conv3 (Conv2D)        (None, 37, 37, 256)       590080 \n_________________________________________________________________\nblock3_pool (MaxPooling2D)   (None, 18, 18, 256)       0 \n_________________________________________________________________\nblock4_conv1 (Conv2D)        (None, 18, 18, 512)       1180160 \n_________________________________________________________________\nblock4_conv2 (Conv2D)        (None, 18, 18, 512)       2359808 \n_________________________________________________________________\nblock4_conv3 (Conv2D)        (None, 18, 18, 512)       2359808 \n_________________________________________________________________\nblock4_pool (MaxPooling2D)   (None, 9, 9, 512)         0 \n_________________________________________________________________\nblock5_conv1 (Conv2D)        (None, 9, 9, 512)         2359808 \n_________________________________________________________________\nblock5_conv2 (Conv2D)        (None, 9, 9, 512)         2359808 \n_________________________________________________________________\nblock5_conv3 (Conv2D)        (None, 9, 9, 512)         2359808 \n_________________________________________________________________\nblock5_pool (MaxPooling2D)   (None, 4, 4, 512)         0 \n=================================================================\nTotal params: 14,714,688\nTrainable params: 14,714,688\nNon-trainable params: 0\n_________________________________________________________________\n\n```", "```py\nfor the layer in vgg_model.layers:\n  layer.trainable = False\n```", "```py\nfinetune = Sequential(layers = vgg_model.layers)\n```", "```py\nfinetune.add(Flatten())\n
…
