…
ucation\", \"marriage\",\n                    \"payment_status_sep\", \"age_na\", \"limit_bal\",\n                    \"age\", \"bill_statement_sep\"]\n    tabular_df.xs.iloc[:5][PREVIEW_COLS] \n    ```", "```py\n    data_loader = tabular_df.dataloaders(bs=64, drop_last=True)\n    data_loader.show_batch() \n    ```", "```py\n    recall = Recall()\n    precision = Precision()\n    learn = tabular_learner(\n        data_loader,\n        [500, 200],\n        metrics=[accuracy, recall, precision]\n    )\n    learn.model \n    ```", "```py\n    TabularModel(\n      (embeds): ModuleList(\n        (0): Embedding(3, 3)\n        (1): Embedding(5, 4)\n        (2): Embedding(4, 3)\n        (3): Embedding(11, 6)\n        (4): Embedding(11, 6)\n        (5): Embedding(11, 6)\n        (6): Embedding(11, 6)\n        (7): Embedding(10, 6)\n        (8): Embedding(10, 6)\n        (9): Embedding(3, 3)\n      )\n      (emb_drop): Dropout(p=0.0, inplace=False)\n      (bn_cont): BatchNorm1d(14, eps=1e-05, momentum=0.1, affine=True, track_running_stats=True)\n      (layers): Sequential(\n        (0): LinBnDrop(\n          (0): Linear(in_features=63, out_features=500, bias=False)\n          (1): ReLU(inplace=True)\n          (2): BatchNorm1d(500, eps=1e-05, momentum=0.1, affine=True, track_running_stats=True)\n        )\n        (1): LinBnDrop(\n          (0): Linear(in_features=500, out_features=200, bias=False)\n          (1): ReLU(inplace=True)\n          (2): BatchNorm1d(200, eps=1e-05, momentum=0.1, affine=True, track_running_stats=True)\n        )\n        (2): LinBnDrop(\n          (0): Linear(in_features=200, out_features=2, bias=True)\n        )\n      )\n    ) \n    ```", "```py\n    learn.lr_find() \n    ```", "```py\n    SuggestedLRs(valley=0.0010000000474974513) \n    ```", "```py\n    learn.fit(n_epoch=25, lr=1e-3, wd=0.2) \n    ```", "```py\n    learn.recorder.plot_loss() \n    ```", "```py\n    valid_data_loader = learn.dls.test_dl(df.loc[list(splits[1])]) \n    ```", "```py\n 
…
